…
me=&#39;conv_1&#39;), MaxPool2D(pool_size=(2,2), name=&#39;maxpool_1&#39;), Conv2D(filters=64, kernel_size=(3,3), activation=tf.nn.relu, name=&#39;conv_2&#39;), MaxPool2D(pool_size=(2,2), name=&#39;maxpool_2&#39;), Flatten(name=&#39;flatten&#39;), Dense(128, activation=tf.nn.relu, name=&#39;dense_1&#39;), Dense(10, activation=tf.nn.softmax, name=&#39;dense_2&#39;) ]) . model.summary() . Model: &#34;sequential&#34; _________________________________________________________________ Layer (type) Output Shape Param # ================================================================= conv_1 (Conv2D) (None, 26, 26, 32) 320 _________________________________________________________________ maxpool_1 (MaxPooling2D) (None, 13, 13, 32) 0 _________________________________________________________________ conv_2 (Conv2D) (None, 11, 11, 64) 18496 _________________________________________________________________ maxpool_2 (MaxPooling2D) (None, 5, 5, 64) 0 _________________________________________________________________ flatten (Flatten) (None, 1600) 0 _________________________________________________________________ dense_1 (Dense) (None, 128) 204928 _________________________________________________________________ dense_2 (Dense) (None, 10) 1290 ================================================================= Total params: 225,034 Trainable params: 225,034 Non-trainable params: 0 _________________________________________________________________ . Define the optimizer to be used during training, loss and the metrics to be gathered. . model.compile(optimizer=&#39;adam&#39;, loss=&#39;sparse_categorical_crossentropy&#39;, metrics=[&#39;acc
…
